wildhack_lstm3.pth (torch, 606483 bytes, 7 tensors)

emb.weight f4 [74, 128]
-0.96921396 -0.021176502 0.7535077 0.8707226 -1.9681485 1.7014619 -1.408186 1.5933346
-0.37744746 1.7781303 0.5191813 2.930674 -2.4629033 -0.9504558 0.09282911 0.58718777
-1.9854596 0.6857132 0.7055273 -1.5664706 -0.8566093 1.1501346 1.0613198 -0.63281995
2.239727 -0.32443672 1.013572 0.26700097 -0.21027187 0.29452473 -0.11495545 1.6662503
-0.20113377 -0.08566312 -2.003063 0.7538189 -0.22127493 -0.12656659 0.6255089 -0.62779164
-1.697663 0.38131806 1.0046881 -0.57678914 -0.0014755635 -1.218462 -2.4224796 1.1698011
-2.0309002 -0.14026383 0.7300036 -0.4531007 0.5899219 0.86444867 -1.413195 -2.0846314
0.54889023 0.29417455 -0.14554934 0.7664461 0.9512422 1.0217655 0.59212035 0.20280458
3.1727347 -0.12197258 1.7368661 -0.90853244 1.9798925 1.9476352 0.38528118 0.6832312
-1.0168053 1.0397497 -1.1560562 -1.4593784 1.1204412 -0.77455986 -0.5885234 0.36190385
0.9330475 -1.4952356 -1.3556962 0.82513714 0.11613168 -0.8534475 -0.68517566 0.4601703
1.0176982 -1.8848307 2.1134825 0.69633013 0.52724534 -0.38134706 -0.7951345 1.3135228
-1.9428746 1.311641 -2.053787 -0.5335223 0.40774238 -0.39884973 1.0663613 -0.4549218
0.3258907 0.3427503 -0.67339164 2.0840971 -0.5987283 -3.093082 1.555129 -0.32341185
1.2636446 -0.4945454 1.057348 0.8786259 0.54850346 0.5170403 -0.065434776 -1.4528075
0.89499545 1.7016754 -2.0342264 -1.4844196 -1.2308056 -0.8821135 -1.5291073 -1.2294662
-0.76844776 -0.774035 0.64783084 1.921122 0.9367331 -0.45719188 0.27854863 0.1451653
-0.15223557 -0.33450928 1.0891025 0.48828495 -0.02009097 -0.8573362 -0.024324559 -0.33677888
-1.9832858 0.72520983 0.6007527 1.0283352 0.8165228 0.74127144 -0.00906539 -1.1196513
0.4327246 -0.22963831 -1.3977408 1.1793866 -1.7410585 2.4336443 -1.4226804 -0.16930224
-1.0736798 -1.6743946 -2.2177145 0.79786164 -0.31775036 -1.2752049 0.34588227 -0.8587827
0.21018684 -0.6851374 -0.69911605 -0.6153862 -0.07422811 -0.12635672 -1.200366 1.3315762
0.10656214 -0.1761002 -1.1232591 -1.4393535 0.8798473 0.22813188 0.77910763 -0.0022012342
-1.2679094 0.10690473 -0.16528162 -0.092938915 1.0114205 0.52058446 0.3128089 -0.8434741
0.24393517 0.028600661 0.013882631 0.8871751 0.46476644 -1.5690928 -0.056357652 0.566348
0.88439155 0.51922804 1.0351605 -0.17599553 -0.49780384 0.56587154 -0.062128805 0.30400714
-1.3982787 -0.17878768 -1.162745 -0.6334825 -0.080552086 1.8810065 0.34141344 -1.1674973
-0.87493986 0.6888349 0.37576663 0.28904992 1.2118069 -0.22785468 -0.38197193 -0.18300489
-1.2177931 0.2557437 -0.21483912 0.66342956 -0.73061585 -1.4656893 0.07818562 -0.17172699
0.76743585 0.07519325 -0.026787821 0.47395185 -0.4475481 0.6355654 -1.1690763 2.0501626
0.44428167 -0.40089473 0.31769672 -1.2877834 1.3623085 -0.050077267 -1.2620459 0.9400212
0.44312185 1.2279404 -1.1423429 -0.5189124 1.0004413 0.6049589 -1.3102193 1.0133117
00000000: 681e 78bf 587a adbc e1e5 403f ade7 5e3f
00000010: 4aec fbbf 81c9 d93f 703f b4bf 63f2 cb3f
00000020: cb40 c1be c699 e33f 11e9 043f 2a90 3b40
00000030: 35a0 1dc0 1251 73bf 301d be3d f051 163f
00000040: 8a23 febf e68a 2f3f 709d 343f 1c82 c8bf
00000050: bf4a 5bbf 9c37 933f 54d9 873f 7d00 22bf
00000060: b057 0f40 921c a6be babc 813f 5ab4 883e
00000070: 8251 57be f2cb 963e c36d ebbd b147 d53f
00000080: 03f6 4dbe 2570 afbd 2f32 00c0 47fa 403f
00000090: e595 62be ac9a 01be 5a21 203f f4b6 20bf
000000a0: 054d d9bf 1f3c c33e 9f99 803f 74a8 13bf
000000b0: b267 c1ba 90f6 9bbf e809 1bc0 0bbc 953f
000000c0: 45fa 01c0 52a1 0fbe 84e1 3a3f d1fc e7be
000000d0: 1f05 173f 824c 5d3f 93e3 b4bf 9a6a 05c0
000000e0: 1284 0c3f 0c9e 963e e30a 15be d035 443f
000000f0: 9c84 733f 36c9 823f 3395 173f 01ac 4f3e
00000100: 160e 4b40 c3cc f9bd a151 de3f 9595 68bf
00000110: 1e6d fd3f 1c4c f93f 9343 c53e 3de8 2e3f
00000120: ad26 82bf 8516 853f a6f9 93bf e9cc babf
00000130: 9e6a 8f3f 8e49 46bf 78a9 16bf 764b b93e
00000140: 33dc 6e3f e163 bfbf 7487 adbf 303c 533f
00000150: 72d6 ed3d 897b 5abf ac67 2fbf 719b eb3e
00000160: ef43 823f 2242 f1bf 4c43 0740 b142 323f
00000170: 8df9 063f ec3f c3be ef8d 4bbf 8421 a83f
00000180: 1db0 f8bf dae3 a73f 3f71 03c0 eb94 08bf
00000190: 9cc3 d03e 0836 ccbe 877e 883f 83eb e8be
000001a0: 25db a63e f87c af3e 6563 2cbf d961 0540
000001b0: 4246 19bf 0ef5 45c0 780e c73f 3d96 a5be
000001c0: 1bbf a13f 0e35 fdbe 2e57 873f a1ed 603f
000001d0: b96a 0c3f c15c 043f ab02 86bd 99f5 b9bf
000001e0: 6c1e 653f 80d0 d93f c430 02c0 7601 bebf
000001f0: 0a8b 9dbf 31d2 61bf cab9 c3bf 265f 9dbf
00000200: feb8 44bf 2827 46bf 3ed8 253f 53e7 f53f
00000210: becd 6f3f 0e15 eabe ed9d 8e3e 36a6 143e
00000220: a4e3 1bbe cd44 abbe b667 8b3f 7c00 fa3e
00000230: d195 a4bc 637a 5bbf 4c44 c7bc 486e acbe
00000240: 4fdc fdbf 5aa7 393f eeca 193f 7da0 833f
00000250: a307 513f f7c3 3d3f 0087 14bc bc50 8fbf
00000260: 148e dd3e 4e26 6bbe 2ce9 b2bf 24f6 963f
00000270: 01db debf d4c0 1b40 641a b6bf 915d 2dbe
00000280: 576e 89bf 9052 d6bf 09ef 0dc0 a940 4c3f
00000290: 2db0 a2be ea39 a3bf 7b17 b13e 2fd9 5bbf
000002a0: 383b 573e 2a65 2fbf 45f9 32bf f389 1dbf
000002b0: e804 98bd a863 01be 98a5 99bf 1771 aa3f
000002c0: 403d da3d 9c53 34be f4c6 8fbf bc3c b8bf
000002d0: ac3d 613f 679b 693e 9973 473f 9542 10bb
000002e0: db4a a2bf def0 da3d 963f 29be c256 bebd
000002f0: 3a76 813f 0645 053f 7d28 a03e ebed 57bf
00000300: 24ca 793e ef4b ea3c fa73 633c e81d 633f
00000310: def5 ed3e 08d8 c8bf 48d7 66bd 2ffc 103f
00000320: 7c67 623f 21ec 043f 2480 843f 2c38 34be
00000330: 25e0 febe f5dc 103f c67a 7ebd d3a6 9b3e
00000340: ccfa b2bf 1e14 37be d4d4 94bf e92b 22bf
00000350: 7ef8 a4bd d2c4 f03f becd ae3e 8d70 95bf
00000360: 0ffc 5fbf 7c57 303f 7c64 c03e 5afe 933e
00000370: 7d1c 9b3f bd52 69be d391 c3be a265 3bbe
00000380: a5e0 9bbf d7f0 823e c9fe 5bbe 85d6 293f
00000390: a409 3bbf b59b bbbf c81f a03d 33d9 2fbe
000003a0: ad76 443f ebfe 993d 2272 dbbc d1a9 f23e
000003b0: 0625 e5be 6ab4 223f 4ba4 95bf dd35 0340
000003c0: e378 e33e 1342 cdbe 25a9 a23e 16d6 a4bf
000003d0: 2060 ae3f d21d 4dbd b88a a1bf 3ba5 703f
000003e0: dee0 e23e 272d 9d3f 4b38 92bf 71d7 04bf
000003f0: 760e 803f 96de 1a3f 44b5 a7bf 33b4 813f

lstm.weight_ih_l0 f4 [512, 128]
0.29336256 0.108827144 0.039828338 0.27669004 0.41583994 0.05433169 -0.06787996 0.17893474
-0.42743653 -0.42633876 0.1971408 -0.42068473 0.36451796 -0.1305666 0.22465222 0.2077655
-0.18495035 -0.065333195 -0.39580852 -0.0035265142 -0.38563317 0.050243646 0.080885775 0.00041612852
0.3097827 -0.2727104 -0.098327376 -0.08910657 -0.15593229 -0.19466132 -0.497338 -0.04195645
0.06566647 0.08419404 0.0858891 -0.44784102 -0.31644723 -0.18007714 0.7724418 -0.39865208
0.12974823 0.10323416 0.18543398 0.04436064 -0.08238518 0.07292217 -0.2153916 0.09009265
0.07941887 -0.2591229 0.5216537 0.044385694 0.5973647 -0.1530608 0.3964893 -0.56111825
-0.5788419 -0.50727266 -0.15027554 0.29042646 0.09508719 -0.31408846 -0.15975183 -0.61021733
0.04440297 -0.17330876 -0.28844273 -0.37601864 -0.22369382 -0.12285884 0.20020866 0.07597936
0.061734457 -0.24551901 0.03792722 0.52004397 -0.19445658 0.058610283 -0.39021513 -0.099335805
0.26093942 0.2884723 -0.009983468 -0.14287926 -0.1519487 -0.10410907 -0.111508876 0.07123984
-0.4691376 0.49807322 0.07309345 0.012725488 -0.1358075 0.13848695 -0.49622402 -0.5314615
0.35810435 -0.15449394 -0.5842975 0.079523966 0.18657292 -0.24373104 0.117066644 0.14315845
0.13512705 -0.37678394 0.44738162 0.14628457 0.021620115 -0.09892471 -0.27214086 0.13514704
-0.52969515 0.016752964 0.09782672 0.40981323 -0.07683925 0.118077934 -0.3948986 -0.47518307
0.36053288 -0.04786412 0.17107524 0.3379892 -0.27852988 -0.50943655 -0.14182429 -0.5607658
-0.17062017 -0.20279075 0.061294023 -0.08565511 0.28450337 -0.10351221 0.1623405 -0.3186946
0.029277379 -0.08411545 0.047697008 0.26008695 -0.023715796 0.20028898 -0.16700411 -0.035144676
-0.16385797 0.38120335 0.47892952 0.14441833 -0.12173856 -0.05362226 -0.18189369 0.38108137
0.26146472 0.15841296 0.5668033 -0.3554779 0.11524742 0.07352739 -0.39558363 0.09906898
-0.206146 -0.1558135 0.045540605 0.205065 -0.22937763 -0.34869897 -0.49145448 -0.11304736
0.07500783 -0.2869774 0.009126271 -0.20483802 0.035448167 -0.47556183 0.10156019 0.05303759
-0.24932785 0.027402733 -0.011970801 -0.4261467 -0.122616336 0.4295123 -0.21740597 0.19144095
0.02776799 -0.19437742 -0.10128685 0.045415968 -0.32326984 -0.33252254 0.3504286 -0.1408287
0.16300875 0.16630247 -0.15428653 0.23608677 0.31664267 0.17898901 0.33121097 0.114260584
0.35512775 -0.059751343 -0.40810132 -0.022097388 0.070443206 -0.29076877 -0.41124418 -0.31820697
0.41447982 -0.34598827 -0.24142629 -0.09765969 0.38912404 -0.13683294 0.33719 0.049868025
-0.07346691 -0.17116857 -0.19889279 -0.20672928 -0.3180109 0.2116844 -0.2165245 0.32300037
0.091880165 0.12753206 -0.093240336 -0.10621408 -0.10938147 0.24681215 0.46920726 0.5499247
0.10956367 0.14271665 -0.31959134 0.06621029 -0.21002562 0.21073373 0.22754854 -0.2707126
0.49828413 -0.120502226 -0.04166059 -0.1460629 0.08541053 0.083525226 0.10554822 0.41904742
0.0027925244 0.09294639 -0.34946916 0.22315492 0.374975 0.06331951 -0.2839689 0.07936953
00000000: 9e33 963e c4e0 de3d 0a23 233d 51aa 8d3e
00000010: f9e8 d43e e88a 5e3d a604 8bbd ab3a 373e
00000020: f6d8 dabe 1349 dabe 47df 493e fd63 d7be
00000030: 19a2 ba3e 40b3 05be 3b0b 663e 7bc0 543e
00000040: a063 3dbe 69cd 85bd 6aa7 cabe 171d 67bb
00000050: b671 c5be 48cc 4d3d 71a7 a53d d32b da39
00000060: d79b 9e3e b3a0 8bbe dd5f c9bd 817d b6bd
00000070: b7ac 1fbe 4c55 47be 16a3 febe 87da 2bbd
00000080: 247c 863d ed6d ac3d a0e6 af3d 6b4b e5be
00000090: 5f05 a2be 2466 38be bfbe 453f 201c ccbe
000000a0: b8dc 043e 6e6c d33d 68e2 3d3e 81b3 353d
000000b0: 90b9 a8bd 3858 953d 9e8f 5cbe 7f82 b83d
000000c0: 5ca6 a23d c2ab 84be 198b 053f c6cd 353d
000000d0: e5ec 183f f8bb 1cbe a500 cb3e 72a5 0fbf
000000e0: fc2e 14bf 9fdc 01bf d5e1 19be c7b2 943e
000000f0: 13bd c23d 34d0 a0be fc95 23be 3437 1cbf
00000100: e3df 353d da77 31be c4ae 93be 8485 c0be
00000110: fe0f 65be 6a9d fbbd 8003 4d3e 119b 9b3d
00000120: 45dd 7c3d 5669 7bbe 9359 1b3d 9a21 053f
00000130: a01f 47be 5611 703d 47ca c7be 9270 cbbd
00000140: da99 853e a4b2 933e b391 23bc f14e 12be
00000150: 7198 1bbe 2337 d5bd c45e e4bd 31e6 913d
00000160: ce32 f0be 7403 ff3e 05b2 953d 917e 503c
00000170: 1f11 0bbe 86cf 0d3e 1311 febe dc0d 08bf
00000180: 7459 b73e a933 1ebe 8594 15bf 76dd a23d
00000190: f90c 3f3e a194 79be a3c0 ef3d 2198 123e
000001a0: bf5e 0a3e d3e9 c0be 340f e53e 9fcb 153e
000001b0: ab1c b13c 0a99 cabd 0c56 8bbe fc63 0a3e
000001c0: 1a9a 07bf 833d 893c 6059 c83d 0ad3 d13e
000001d0: e65d 9dbd d8d2 f13d 2630 cabe 324b f3be
000001e0: c497 b83e 2b0d 44bd 592e 2f3e ec0c ad3e
000001f0: 789b 8ebe 6f6a 02bf 633a 11be 598e 0fbf
00000200: 0eb7 2ebe 61a8 4fbe 710f 7b3d f26b afbd
00000210: 6daa 913e 36fe d3bd 973c 263e f02b a3be
00000220: 1dd7 ef3c b944 acbd f05d 433d 1e2a 853e
00000230: a147 c2bc 8e18 4d3e 2003 2bbe ddf3 0fbd
00000240: 62ca 27be 162d c33e 4036 f53e 66e2 133e
00000250: 1152 f9bd 04a3 5bbd 5742 3abe 191d c33e
00000260: b4de 853e 0237 223e 051a 113f 3301 b6be
00000270: d706 ec3d 8795 963d f089 cabe ade4 ca3d
00000280: f017 53be 938d 1fbe c988 3a3d 8ffc 513e
00000290: f8e1 6abe ac88 b2be ec9f fbbe 6085 e7bd
000002a0: b59d 993d b4ee 92be 5b86 153c 0fc1 51be
000002b0: 1932 113d d77c f3be cafe cf3d f23d 593d
000002c0: cd4f 7fbe b27b e03c 2e21 44bc e62f dabe
000002d0: 461e fbbd 09e9 db3e ac9f 5ebe 1909 443e
000002e0: b279 e33c e00a 47be 7b6f cfbd 1806 3a3d
000002f0: a083 a5be 6540 aabe 616b b33e 6635 10be
00000300: c4eb 263e 324b 2a3e 4afd 1dbe bbc0 713e
00000310: fd1e a23e e548 373e 7c94 a93e 7401 ea3d
00000320: 4ed3 b53e d3bd 74bd a8f2 d0be 9505 b5bc
00000330: 8744 903d a5df 94be 998e d2be 06ec a2be
00000340: b336 d43e 6025 b1be 7438 77be ce01 c8bd
00000350: 443b c73e ef1d 0cbe 2ba4 ac3e 6a42 4c3d
00000360: d275 96bd d046 2fbe 8daa 4bbe d7b0 53be
00000370: 53d2 a2be ccc3 583e 99b8 5dbe 4e60 a53e
00000380: ab2b bc3d c497 023e caf4 bebd c486 d9bd
00000390: 6403 e0bd 53bc 7c3e ef3b f03e ddc7 0c3f
000003a0: eb62 e03d 5024 123e 7aa1 a3be 4399 873d
000003b0: f510 57be 95ca 573e 7c02 693e d89a 8abe
000003c0: 191f ff3e dfc9 f6bd 4ba4 2abd 8391 15be
000003d0: b7eb ae3d 460f ab3d aa29 d83d 628d d63e
000003e0: c902 373b ad5a be3d 9fed b2be b982 643e
000003f0: b9fc bf3e a9ad 813d 5f64 91be 7e8c a23d

lstm.weight_hh_l0 f4 [512, 128]
0.39536107 -0.7789464 -0.8366496 0.50591624 -0.092001155 -1.1005057 -0.42888406 1.2188095
0.29488808 0.2982662 0.33008668 0.5166319 -0.73569566 -0.0887091 1.0872126 0.27031595
0.23351708 0.68000764 0.24683787 0.41376376 -0.5229024 0.24471243 -0.32757455 -1.6443772
0.14786386 -0.24520671 -0.08579991 0.5682233 -1.1582206 -0.349032 1.2267419 1.2464026
-1.1122543 0.20022464 1.1174536 -0.53437924 0.566734 -0.22537717 -0.8031556 0.060811564
-1.417924 -0.371116 0.39421093 -0.8539801 0.012026872 0.501644 0.31993353 -1.2582377
1.0650034 0.5101731 0.74317884 -0.17048953 -0.16937579 0.0116482405 0.25073516 0.7787339
0.8714724 -0.34612384 -0.5076324 0.01768481 0.47288793 0.11571935 0.6890841 -1.4260336
-0.8560926 -0.9234352 0.8291693 -0.5882252 -0.11451689 -0.086027555 0.21327513 0.17117055
0.40815282 -0.002615915 0.52627283 1.7928548 -0.44931656 0.5239403 -1.0802357 -1.780942
0.9066317 0.2642053 -0.07402318 1.8683549 0.3381313 0.5056335 0.21927464 -0.8784673
0.8201651 0.2828563 -0.41527605 -0.10915064 0.017803447 -0.43802688 -0.35536084 0.7318542
0.06578168 0.15626758 -0.20219098 0.30429617 -0.6358413 0.19013436 -0.025311256 0.48527843
-0.63635045 -0.15246464 0.46073434 -0.46645153 -0.51792383 -0.50572526 0.70448536 -0.53237814
0.57092714 -0.47047243 0.59309804 0.1857362 0.6144276 -0.5397652 -0.3704932 0.12456828
-0.34001255 -0.9091056 0.2811774 -0.21691838 0.74191254 -0.37020457 -1.0938102 0.154383
0.7768769 0.4296626 0.29980066 0.77255404 1.515515 -0.63448703 1.215731 0.7219721
-0.6647264 -0.51486486 0.8244539 0.41877276 -0.154769 -0.76909715 0.3949054 -0.432115
-0.48364833 0.00996775 -0.34562466 -1.1281643 0.67347425 1.3787204 0.5912626 0.7407603
0.86965466 0.51221937 -1.4345734 0.9747268 0.30816904 0.22530729 -0.84086835 0.40304917
0.15812813 1.311538 0.062177543 1.2831734 0.649781 -0.08321759 0.6830574 -0.15904813
0.56418544 0.97738045 -0.03286758 -0.1265194 -0.13931398 -0.73968184 -0.110968284 0.40912464
-0.1772772 -0.74928725 0.17970969 -0.02676673 -0.7091277 -0.81461865 -0.21203892 1.3378865
0.26807532 0.48043734 -0.05067515 0.118475616 0.54995704 0.28186736 -0.06286903 0.8915013
0.8729472 -0.66259074 0.35569847 -1.0395063 -0.37373185 0.4465388 0.9698191 -0.50664
0.7197182 0.05775915 -0.30677876 0.9501897 -0.51308006 -1.109775 -0.35448915 -0.080779545
0.34333086 -0.16985092 -0.13113585 -0.46443793 -0.525494 0.9697947 -0.056751102 -0.28724554
0.39783615 -0.40815338 0.24352892 1.6040515 -1.7628762 -0.074058965 0.39246696 0.13539013
0.27836987 0.4220409 0.06841765 -0.73742354 0.044006158 -0.75851536 -1.2774915 -0.5718688
0.038948618 0.30345553 -0.31543875 -0.04204433 0.7727052 0.30965674 0.15401505 0.07030045
-0.32460395 0.32678717 -0.34038886 -0.6500659 -0.55310106 -1.1240808 -0.46464345 0.10831367
0.08364969 1.1216216 -0.0795878 0.9902625 -0.16065644 0.038374912 0.66269195 0.13108641
00000000: c46c ca3e 0869 47bf ab2e 56bf ba83 013f
00000010: 1a6b bcbd 5fdd 8cbf b196 dbbe f301 9c3f
00000020: 92fb 963e 59b6 983e 1f01 a93e fd41 043f
00000030: 8d56 3cbf 1ead b5bd c829 8b3f da66 8a3e
00000040: 1a1f 6f3e fb14 2e3f 11c3 7c3e d8d8 d33e
00000050: efdc 05bf e595 7a3e dab7 a7be f47a d2bf
00000060: a069 173e 7817 7bbe ddb7 afbd 1577 113f
00000070: 9340 94bf 53b4 b2be e105 9d3f 1f8a 9f3f
00000080: 595e 8ebf b007 4d3e b808 8f3f 14cd 08bf
00000090: 7b15 113f 46c9 66be 9b9b 4dbf 8c15 793d
000000a0: 897e b5bf eb02 bebe 04d6 c93e 719e 5abf
000000b0: 5b0c 453c be6b 003f 54ce a33e ef0d a1bf
000000c0: 0852 883f b49a 023f f840 3e3f cf94 2ebe
000000d0: d970 2dbe 43d8 3e3c 5c60 803e 1b5b 473f
000000e0: d118 5f3f 2537 b1be 32f4 01bf bcdf 903c
000000f0: 5e1e f23e 44fe ec3d d167 303f 4588 b6bf
00000100: e228 5bbf 4066 6cbf 7044 543f ed95 16bf
00000110: d587 eabd 372f b0bd cc64 5a3e 5547 2f3e
00000120: 68f9 d03e c56f 2bbb d1b9 063f 447c e53f
00000130: d20c e6be f420 063f 2a45 8abf e8f5 e3bf
00000140: 0419 683f eb45 873e 7799 97bd 4126 ef3f
00000150: 8c1f ad3e 3271 013f 8889 603e 3ce3 60bf
00000160: 57f6 513f 8ad2 903e 109f d4be 5f8a dfbd
00000170: 89d8 913c 0f45 e0be dbf1 b5be cc5a 3b3f
00000180: 8cb8 863d 9c04 203e 270b 4fbe b5cc 9b3e
00000190: 7fc6 22bf 95b2 423e 8d59 cfbc 6a76 f83e
000001a0: dde7 22bf b11f 1cbe 5fe5 eb3e bcd2 eebe
000001b0: a896 04bf 3677 01bf 2759 343f ef49 08bf
000001c0: 4828 123f c3e1 f0be 46d5 173f a131 3e3e
000001d0: 214b 1d3f 0d2e 0abf 49b1 bdbe a81d ff3d
000001e0: 2016 aebe 25bb 68bf 7cf6 8f3e da1f 5ebe
000001f0: fbed 3d3f 748b bdbe f901 8cbf 9416 1e3e
00000200: 68e1 463f bcfc db3e 797f 993e 1ac6 453f
00000210: 65fc c13f be6d 22bf 139d 9b3f 2ad3 383f
00000220: 822b 2abf 2fce 03bf 690f 533f 6269 d63e
00000230: c47b 1ebe 8de3 44bf 0a31 ca3e 2d3e ddbe
00000240: c1a0 f7be c64f 233c b7f5 b0be b067 90bf
00000250: cf68 2c3f e979 b03f fc5c 173f 78a2 3d3f
00000260: b0a1 5e3f cf20 033f 1aa0 b7bf b287 793f
00000270: 55c8 9d3e f4b6 663e 2643 57bf 765c ce3e
00000280: 57ec 213e 7ae0 a73f e1ad 7e3d 073f a43f
00000290: 0c58 263f fc6d aabd dadc 2e3f 83dd 22be
000002a0: 756e 103f 9b35 7a3f 28a0 06bd 4d8e 01be
000002b0: 53a8 0ebe ca5b 3dbf 5743 e3bd c978 d13e
000002c0: 2888 35be 4ad1 3fbf d105 383e e745 dbbc
000002d0: 6589 35bf d98a 50bf bb20 59be dd3f ab3f
000002e0: 2b41 893e e2fb f53e bf90 4fbd 58a3 f23d
000002f0: fcc9 0c3f eb50 903e 7ac1 80bd 6e39 643f
00000300: 7879 5f3f 8c9f 29bf 1c1e b63e 8b0e 85bf
00000310: c859 bfbe bca0 e43e 1146 783f 29b3 01bf
00000320: 743f 383f dc94 6c3d 1b12 9dbe a23f 733f
00000330: 3759 03bf 1b0d 8ebf 9a7f b5be bf6f a5bd
00000340: 10c9 af3e 66ed 2dbe 7a48 06be cfca edbe
00000350: c686 06bf 7744 783f d873 68bd d911 93be
00000360: 2eb1 cb3e 7bf9 d0be a55f 793e 8f51 cd3f
00000370: eda5 e1bf 3aac 97bd 6ef1 c83e b6a3 0a3e
00000380: 7f86 8e3e bf15 d83e 8e1e 8c3d cac7 3cbf
00000390: cd3f 343d 102e 42bf d784 a3bf fe65 12bf
000003a0: 9688 1f3d 865e 9b3e 3081 a1be ad36 2cbd
000003b0: 02d0 453f 548b 9e3e 1fb6 1d3e aff9 8f3d
000003c0: 7d32 a6be a650 a73e 7347 aebe b86a 26bf
000003d0: 0898 0dbf e1e1 8fbf bfe5 edbe 8fd3 dd3d
000003e0: 8750 ab3d 4c91 8f3f eefe a2bd d881 7d3f
000003f0: 1f83 24be 032f 1d3d 2ea6 293f 843b 063e

lstm.bias_ih_l0 f4 [512]
0.31637833 0.18430035 0.3259445 0.4196642 0.34427413 0.14220683 0.25324568 0.11352202
0.4961627 0.14119196 0.3231068 0.28701934 0.5221862 0.4108919 0.4058218 0.11684765
0.44307196 0.322452 0.72793645 0.51075685 0.35839647 0.41552308 0.349829 0.4296159
0.20287159 0.39139128 0.1544839 0.5089915 -0.045528527 0.47712988 0.49960354 0.27367258
-0.10913132 0.543001 0.3490768 -0.02056524 0.17492734 0.3175742 0.28757066 0.32035163
0.27403054 0.13828708 0.076350875 0.20092294 0.39357886 0.69758177 0.42172682 0.53226256
0.35801023 0.3391577 0.3373699 0.27680466 0.5831759 0.46642807 -0.03025571 0.10851229
0.5260526 0.3973015 0.3172043 0.4506995 0.39232397 0.5248408 0.27683127 0.32143384
0.68589175 0.40754512 0.38387233 0.50772244 0.097025506 0.3469215 0.3572137 0.2365377
0.086758584 0.1802045 0.5117611 0.38722727 0.44860643 0.43087164 0.59005225 0.2533163
0.40790054 0.33162656 0.60960466 0.32108024 0.33045784 0.46497178 0.29753008 0.17354417
0.42097604 0.5224467 -0.42493513 0.10055704 0.5826863 0.5204778 0.45001343 0.429772
0.38338304 0.73260957 0.19115843 0.46368864 0.18308762 0.38255918 0.24516806 0.3025163
0.46406835 0.21918522 0.29216468 0.2676517 0.32591254 0.28699088 0.6479613 0.27384937
0.124188274 0.5789053 0.35528627 0.596025 -0.05918565 0.27726853 0.1584239 0.26092097
0.56028694 0.3233703 0.23163137 0.3930461 0.2859603 0.34713876 0.17356095 0.01887454
0.01565931 0.022389134 -0.093336605 -0.34615466 0.35360187 -0.019674404 0.03815208 -0.1498555
-0.05276001 0.0442394 -0.25863734 0.30177435 -0.22684428 -0.13374694 -0.017923003 -0.03271069
0.020037 0.07123455 -0.2996078 0.1285791 -0.046609245 -0.042221174 -0.076649636 0.18092301
0.19940153 -0.12896173 -0.16249438 -0.14453454 0.22029021 -0.47393814 -0.01665575 -0.20470764
0.035650928 -0.34374434 -0.23352271 0.16459428 -0.116687894 -0.065479346 0.1384162 0.034600914
-0.08704359 -0.005330126 0.19795835 0.2969686 -0.2536246 -0.15655874 -0.040034384 0.13235666
-0.05450851 0.25601572 -0.14620283 -0.12922631 0.30465356 0.07817927 0.031652767 0.29967412
-0.2266092 0.0638615 -0.23151831 0.2969524 0.33062577 -0.50126064 0.1867054 -0.064042486
-0.19463845 0.055938322 0.20517665 0.41383928 0.19116531 -0.34796193 -0.17379475 0.012370666
-0.10317544 -0.03345146 0.23143427 -0.0062064477 0.01003411 -0.13995938 -0.0019557634 -0.091420814
-0.2852261 -0.14251387 -0.15992323 0.057965413 0.0815852 0.14507824 -0.19743235 -0.09405211
-0.11479481 -0.028332997 0.45573682 0.3051401 -0.15379141 -0.021606468 0.18498503 0.389898
-0.06797542 0.12828779 -0.16999759 0.12419875 -0.105518565 -0.11509934 0.1340282 0.48300904
0.009799572 -0.06904157 -0.0092650065 -0.17313804 -0.0045233783 -0.09114 0.03245384 0.04221768
0.035033025 -0.2798041 0.14587381 -0.08653189 -0.15638307 -0.3328149 0.3458762 -0.025998218
0.07259487 -0.116419286 -0.38260588 -0.24982032 -0.13960725 0.4124989 0.40592697 -0.16853745
00000000: 57fc a13e 3bb9 3c3e 33e2 a63e 3ade d63e
00000010: b344 b03e ab9e 113e 6ba9 813e 3c7e e83d
00000020: 0a09 fe3e a094 103e 416e a53e 33f4 923e
00000030: ffad 053f 6c60 d23e e0c7 cf3e d24d ef3d
00000040: 54da e23e 6e18 a53e 0b5a 3a3f f6c0 023f
00000050: be7f b73e 71bf d43e c91c b33e 9ef6 db3e
00000060: 92bd 4f3e 7064 c83e 0731 1e3e 444d 023f
00000070: 1f7c 3abd 5e4a f43e 09cc ff3e d01e 8c3e
00000080: 3e80 dfbd 1d02 0b3f 32ba b23e 6f78 a8bc
00000090: 2720 333e 1699 a23e 763c 933e 2105 a43e
000000a0: bb4d 8c3e 219b 0d3e d95d 9c3d bebe 4d3e
000000b0: 2b83 c93e b894 323f 94ec d73e 5c42 083f
000000c0: 1e4d b73e 14a6 ad3e bfbb ac3e 57b9 8d3e
000000d0: 044b 153f a9cf ee3e d3da f7bc b13b de3d
000000e0: 62ab 063f 1a6b cb3e 9a68 a23e 16c2 e63e
000000f0: b0de c83e f75b 063f d4bc 8d3e fa92 a43e
00000100: 9a96 2f3f c1a9 d03e ea8a c43e 19fa 013f
00000110: 4fb5 c63d b29f b13e b7e4 b63e f036 723e
00000120: 7cae b13d 8787 383e c702 033f a742 c63e
00000130: beaf e53e 359b dc3e aa0d 173f adb2 813e
00000140: 57d8 d03e f5ca a93e 0d0f 1c3f a164 a43e
00000150: c531 a93e c810 ee3e dd55 983e 90b5 313e
00000160: 2c8a d73e 11bf 053f 1991 d9be d9f0 cd3d
00000170: ee2a 153f 083e 053f 2968 e63e 130b dc3e
00000180: c84a c43e 4d8c 3b3f 09bf 433e 9968 ed3e
00000190: 527b 3b3e ccde c33e 560d 7b3e 6be3 9a3e
000001a0: 5e9a ed3e 1772 603e 9c96 953e a509 893e
000001b0: 02de a63e 78f0 923e cbe0 253f fc35 8c3e
000001c0: 6c56 fe3d 2333 143f 15e8 b53e 1895 183f
000001d0: a76c 72bd 24f6 8d3e e039 223e 6f97 853e
000001e0: f76e 0f3f cb90 a53e c630 6d3e 573d c93e
000001f0: 6369 923e 2cbc b13e f6b9 313e c89e 9a3c
00000200: f447 803c 6b69 b73c 4327 bfbd 2f3b b1be
00000210: 4e0b b53e 372c a1bc 5b45 1c3d b873 19be
00000220: e11a 58bd 6034 353d 1d6c 84be 2b82 9a3e
00000230: de49 68be f5f4 08be 43d3 92bc a5fb 05bd
00000240: a224 a43c 6be3 913d 3266 99be 3daa 033e
00000250: 56e9 3ebd 1cf0 2cbd 7cfa 9cbd e243 393e
00000260: ea2f 4c3e 8b0e 04be ed64 26be dd00 14be
00000270: c293 613e 05a8 f2be a471 88bc e19e 51be
00000280: b506 123d 42ff afbe 9420 6fbe 678b 283e
00000290: 10fa eebd 091a 86bd fabc 0d3e b0b9 0d3d
000002a0: e943 b2bd 56a8 aebb 98b5 4a3e 450c 983e
000002b0: 15db 81be ef50 20be 18fb 23bd 8188 073e
000002c0: 5144 5fbd 7e14 833e 32b6 15be e753 04be
000002d0: 8dfb 9b3e 741c a03d 55a6 013d e36e 993e
000002e0: 3e0c 68be d1c9 823d 2313 6dbe 250a 983e
000002f0: c847 a93e 9e52 00bf b32f 3f3e b528 83bd
00000300: 4d4f 47be 951f 653d d419 523e bee2 d33e
00000310: d7c0 433e 1128 b2be 40f7 31be 55ae 4a3c
00000320: a54d d3bd 6604 09bd 1bfd 6c3e 755f cbbb
00000330: 1c66 243c 8351 0fbe 442c 00bb d63a bbbd
00000340: 2809 92be 28ef 11be eac2 23be 246d 6d3d
00000350: 2416 a73d 648f 143e b52b 4abe 659e c0bd
00000360: 8b19 ebbd 9a1a e8bc 5656 e93e 533b 9c3e
00000370: 7f7b 1dbe 0c00 b1bc b76c 3d3e b6a0 c73e
00000380: b236 8bbd e05d 033e d913 2ebe ea5b fe3d
00000390: 1e1a d8bd 34b9 ebbd b03e 093e f64c f73e
000003a0: 628e 203c ab65 8dbd 41cc 17bc 194b 31be
000003b0: d938 94bb 9ca7 babd 51ee 043d 72ec 2c3d
000003c0: ca7e 0f3d 7c42 8fbe f25f 153e a237 b1bd
000003d0: e222 20be b766 aabe af16 b13e 37fa d4bc
000003e0: 9fac 943d 3c6d eebd ebe4 c3be e6d0 7fbe
000003f0: 34f5 0ebe 0e33 d33e a9d5 cf3e 1595 2cbe

lstm.bias_hh_l0 f4 [512]
0.21904859 0.11056904 0.3290643 0.39449102 0.39475495 0.17820781 0.22404835 0.1571697
0.5554737 0.11404545 0.37223327 0.31450474 0.47206834 0.44170156 0.40653202 0.02212534
0.38899747 0.36299312 0.64868814 0.42017585 0.31027249 0.3814702 0.48790076 0.30928278
0.17809543 0.36078587 0.074433535 0.52391654 0.0066206735 0.38441244 0.6010571 0.27714643
-0.1565094 0.3863157 0.43632895 0.024206098 0.055183508 0.27638653 0.34637448 0.22029422
0.274069 0.09491706 0.098705865 0.18970548 0.5369389 0.5741245 0.3471374 0.48040906
0.2976602 0.36090848 0.34147447 0.333487 0.54682046 0.4193357 0.07052202 0.11803106
0.5095367 0.30925187 0.389754 0.5520132 0.45296898 0.41856036 0.33951738 0.39604744
0.66455775 0.26718256 0.33722422 0.49787995 0.13038561 0.43383855 0.2969832 0.18635584
0.013148507 0.13956189 0.39344195 0.42327017 0.45180315 0.3009451 0.6397222 0.2860803
0.3599509 0.2724918 0.5882663 0.23874526 0.32923022 0.48691568 0.3108387 0.09765771
0.37638143 0.4977189 -0.39720464 0.22487696 0.56948626 0.4166164 0.4889886 0.46070468
0.2932294 0.60480374 0.24695145 0.35470083 0.086019754 0.32995445 0.3397875 0.21838689
0.42546913 0.27304754 0.40890488 0.3153055 0.43991402 0.14147423 0.7504777 0.25352648
0.100745246 0.53756994 0.32051057 0.5686208 0.0134896645 0.26231188 0.13797905 0.17534432
0.4545188 0.28785464 0.3226288 0.53240854 0.35372293 0.20611793 0.119998135 0.052218582
-0.07354998 0.10750725 -0.20314243 -0.3068734 0.24382532 0.05424187 -0.0018572214 -0.122039884
0.012315958 0.18218496 -0.2857456 0.23802993 -0.2361677 -0.14971948 -0.0952621 -0.12768547
-0.034212418 0.05470694 -0.19044687 0.12675369 -0.19314298 0.096121214 -0.00835929 0.17342076
0.12521502 -0.09091082 -0.16739109 -0.017459525 0.20651405 -0.38873625 -0.06296704 -0.20316775
0.06716601 -0.3466826 -0.23335283 0.21531755 -0.061302036 -0.026328344 0.047787406 0.025305558
0.051730268 0.11037063 0.2017264 0.24914949 -0.35168839 -0.0970574 -0.03694102 0.04913966
-0.054856233 0.16416009 -0.103534624 -0.03467123 0.31159177 0.0027886361 -0.043580357 0.14026757
-0.15993412 0.122846894 -0.08686038 0.35442698 0.2639477 -0.49999595 0.22812392 -0.085913
-0.09105728 0.11872378 0.18054031 0.31301853 0.07677128 -0.342779 -0.09250777 0.10453577
-0.13393535 0.090720445 0.14646377 0.053026363 -0.060104907 -0.20304275 0.072477706 -0.24270219
-0.31504118 0.0050354535 -0.19600765 0.12584528 0.09177767 0.19575821 -0.15633625 -0.00033209298
0.037300047 0.027998507 0.5030158 0.30094284 -0.19829133 -0.054012276 0.20527005 0.2865159
-0.09072508 0.10067549 -0.063909486 0.1037522 0.0058728545 -0.13550457 0.064790346 0.48541394
-0.03095143 -0.03475022 0.048518036 -0.080792315 0.019207383 -0.010526741 -0.052980352 0.0977494
-0.039745662 -0.36084473 0.12284753 -0.0160649 -0.21683805 -0.29884347 0.28523406 0.0029315175
0.034446195 -0.16663852 -0.39513043 -0.28855115 -0.13501689 0.32012272 0.45771593 -0.061109442
00000000: 464e 603e 0572 e23d 1e7b a83e bafa c93e
00000010: 521d ca3e 1c7c 363e ee6c 653e 18f1 203e
00000020: 8633 0e3f a990 e93d 5c95 be3e c406 a13e
00000030: f1b2 f13e b526 e23e f724 d03e 3340 b53c
00000040: ad2a c73e 3cda b93e 6d10 263f 4a21 d73e
00000050: 09dc 9e3e 1050 c33e 21ce f93e 505a 9e3e
00000060: a65e 363e edb8 b83e 9c70 983d 651f 063f
00000070: 3cf2 d83b b5d1 c43e e1de 193f 23e6 8d3e
00000080: 0044 20be 2ccb c53e 8266 df3e de4b c63c
00000090: 1a08 623d 8982 8d3e ff57 b13e cf94 613e
000000a0: c652 8c3e e063 c23d 4d26 ca3d 2742 423e
000000b0: d474 093f d3f9 123f febb b13e 2df8 f53e
000000c0: eb66 983e ffc8 b83e bed5 ae3e cfbe aa3e
000000d0: 6dfc 0b3f 2bb3 d63e d96d 903d 45ba f13d
000000e0: ff70 023f 4356 9e3e d68d c73e bd50 0d3f
000000f0: 8deb e73e 8b4d d63e 39d5 ad3e bbc6 ca3e
00000100: 7520 2a3f 27cc 883e a7a8 ac3e 1fea fe3e
00000110: ce83 053e 1620 de3e 2f0e 983e 11d4 3e3e
00000120: d66c 573c 50e9 0e3e 3971 c93e deb6 d83e
00000130: be52 e73e 7a15 9a3e d6c4 233f 1e79 923e
00000140: 7c4b b83e 0c84 8b3e 9f98 163f a379 743e
00000150: dd90 a83e 034d f93e 4026 9f3e c400 c83d
00000160: 11b5 c03e 03d5 fe3e 685e cbbe 2546 663e
00000170: dac9 113f bf4e d53e b75c fa3e 7ce1 eb3e
00000180: 2a22 963e 6bd4 1a3f d7e0 7c3e 599b b53e
00000190: 202b b03d caef a83e a1f8 ad3e d0a0 5f3e
000001a0: 17d7 d93e e3cc 8b3e fb5b d13e b96f a13e
000001b0: 693c e13e 9fde 103e 4e1f 403f 39ce 813e
000001c0: 8653 ce3d 2f9e 093f f619 a43e 2291 113f
000001d0: c103 5d3c be4d 863e 614a 0d3e 768d 333e
000001e0: b0b6 e83e af61 933e 9a2f a53e ed4b 083f
000001f0: 2c1b b53e 9410 533e 95c1 f53d 27e3 553d
00000200: 5fa1 96bd c32c dc3d 9204 50be 831e 9dbe
00000210: 58ad 793e b92c 5e3d 026e f3ba 0cf0 f9bd
00000220: dfc8 493c b28e 3a3e 3f4d 92be 1ebe 733e
00000230: f2d5 71be 1050 19be c718 c3bd fbbf 02be
00000240: 5222 0cbd 6214 603d 8104 43be b8cb 013e
00000250: 46c7 45be 33db c43d 67f5 08bc 3695 313e
00000260: 5e38 003e 742f babd 9268 2bbe 4707 8fbc
00000270: 6b78 533e 7008 c7be ddf4 80bd 350b 50be
00000280: 558e 893d 6280 b1be 0bf4 6ebe 347c 5c3e
00000290: d817 7bbd 8aae d7bc babc 433d 9a4d cf3c
000002a0: 1ee3 533d ff09 e23d 5e91 4e3e 0b21 7f3e
000002b0: 8010 b4be 08c6 c6bd 784f 17bd ab46 493d
000002c0: eeb0 60bd 9519 283e f609 d4bd 6b03 0ebd
000002d0: f588 9f3e 8dc1 363b 5181 32bd 4da2 0f3e
000002e0: c5c5 23be 2797 fb3d dbe3 b1bd 7477 b53e
000002f0: 2724 873e 78ff ffbe 5199 693e 28f3 afbd
00000300: 3d7c babd 7425 f33d 8fdf 383e f743 a03e
00000310: 433a 9d3d bb80 afbe b774 bdbd da16 d63d
00000320: 5926 09be a4cb b93d 99fa 153e 2c32 593d
00000330: 9030 76bd 70ea 4fbe 316f 943d ec86 78be
00000340: 144d a1be 7200 a53b 3bb6 48be 96dd 003e
00000350: eef5 bb3d d774 483e 9c16 20be c41c aeb9
00000360: efc7 183d 205d e53c a5c5 003f 2e15 9a3e
00000370: e20c 4bbe fa3b 5dbd 5032 523e 36b2 923e
00000380: 12ce b9bd f42e ce3d fae2 82bd 097c d43d
00000390: 1371 c03b b6c1 0abe cdb0 843d 2d88 f83e
000003a0: da8d fdbc 3f56 0ebd d9ba 463d 7176 a5bd
000003b0: cd58 9d3c 5a78 2cbc ed01 59bd d630 c83d
000003c0: 59cc 22bd a4c0 b8be 7c97 fb3d 8a9a 83bc
000003d0: cb0a 5ebe 0302 99be 330a 923e b41e 403b
000003e0: 7417 0d3d 4aa3 2abe 894e cabe fabc 93be
000003f0: de41 0abe 20e7 a33e be59 ea3e e54d 7abd

pred.weight f4 [74, 128]
-0.6640482 -0.12257617 -0.64687073 -0.4745382 -0.3333442 0.38244504 0.112920724 -0.54288983
-0.45820913 0.145638 -0.8170437 0.2606021 0.9811863 -0.11726661 -0.29705316 0.2923489
0.038622852 -0.105250545 0.35944572 0.9678455 0.24591601 0.26286006 0.44367445 0.5238599
-1.0983137 -0.31695452 0.10998222 -0.81470126 0.5567017 -0.6682565 -0.29097453 -0.6479016
0.9408893 0.42241028 0.05828594 -0.5903995 -0.6319732 -0.35725215 -0.051404938 0.23387434
-0.028153246 0.39888015 0.8099479 1.2724401 -0.6673652 0.15082303 -0.08382243 0.72813565
0.35735056 0.27081618 -0.27552167 0.85064876 0.2674313 -0.08530099 0.11522469 -0.5042325
-0.60113907 -0.09467815 0.23805758 0.6039856 -0.3399735 -0.986032 -0.26075876 -0.06707829
-0.2379444 0.376711 -0.33445558 1.2487799 0.33165762 0.28450158 0.19601367 -0.10678588
-0.5447489 0.55677444 -0.3827676 -0.097031176 -0.9021364 -0.2986779 0.10542477 -0.1951233
-0.47520617 0.319531 0.47340342 0.5954539 0.9462832 -0.34722108 -0.8896947 0.4117605
0.3540459 0.5559536 0.36910242 -0.67317575 0.28693977 -1.7697027 -1.0088018 0.67482233
-0.8404248 -0.83882594 -0.004310206 0.79349685 -0.37022078 -0.124076135 1.0293295 0.9171264
0.27334607 0.19687726 -0.862477 -0.057372116 1.6025301 0.06063479 -1.6197367 -0.45511037
0.21095087 0.5886609 -0.7359946 0.5249681 0.14838766 0.06317154 0.78304994 0.117002204
-1.6351513 -0.5057237 0.39643824 0.24473032 -0.4667665 0.64524364 -0.54193884 -1.0840576
-0.72641546 -0.13453163 -0.65283185 -0.43181875 -0.40581408 0.3917526 0.11699999 -0.58646756
-0.49054745 0.087229416 -0.84159124 0.2807688 1.0331378 -0.116640754 -0.23072262 0.29219794
-0.036072135 -0.075737186 0.35313955 0.9337697 0.2872806 0.25248483 0.4797658 0.55886245
-1.0374064 -0.35704598 0.017485697 -0.6968103 0.58857185 -0.65775335 -0.22284216 -0.5637324
0.9612928 0.43773434 0.0412874 -0.572687 -0.73304355 -0.42111874 -0.093923934 0.2532772
-0.15138361 0.45456862 0.8872284 1.2891562 -0.71079427 0.2178058 -0.043735847 0.8062677
0.4175927 0.32031724 -0.30321088 0.9053038 0.25316292 -0.12669519 0.1279725 -0.5112762
-0.71825856 -0.1519821 0.24536577 0.49371776 -0.38962308 -1.044426 -0.20645368 -0.0247248
-0.19778618 0.30220172 -0.21956758 1.3268468 0.31948182 0.25945973 0.19938427 -0.1315303
-0.48782706 0.5849829 -0.47644046 -0.011725849 -0.9307875 -0.20450611 0.05749822 -0.18025506
-0.5442548 0.357569 0.48253515 0.6551539 0.95922583 -0.35276583 -0.8804235 0.42459556
0.3718124 0.5217102 0.40992558 -0.7117592 0.30827335 -1.6918383 -0.94246763 0.65952545
-0.982532 -0.8476632 -0.010014401 0.8695154 -0.42140827 -0.18303725 0.9776073 0.8643082
0.27934057 0.2045204 -0.9456621 -0.10942085 1.6507953 0.09456267 -1.5916046 -0.48448697
0.1234692 0.61729425 -0.8190571 0.56250435 0.15569544 0.052981846 0.87647295 0.1543595
-1.627729 -0.43035865 0.33834782 0.2665606 -0.47826517 0.6401991 -0.51470256 -1.0818225
00000000: 10ff 29bf 3709 fbbd 5299 25bf acf6 f2be
00000010: 17ac aabe d6cf c33e fb42 e73d d4fa 0abf
00000020: 639a eabe 2122 153e c729 51bf a36d 853e
00000030: 062f 7b3f 7a29 f0bd 5a17 98be c1ae 953e
00000040: ff32 1e3d 998d d7bd 4509 b83e b9c4 773f
00000050: 68d1 7b3e 9895 863e 4c29 e33e af1b 063f
00000060: 8b95 8cbf dd47 a2be 5c3e e13d 4390 50bf
00000070: 0184 0e3f dc12 2bbf 9dfa 94be e1dc 25bf
00000080: 1fde 703f 2946 d83e 3dbd 6e3d 6c24 17bf
00000090: ffc8 21bf c1e9 b6be fc8d 52bd c17c 6f3e
000000a0: a3a1 e6bc 053a cc3e bf58 4f3f 51df a23f
000000b0: 72d8 2abf 5a71 1a3e 18ab abbd 1967 3a3f
000000c0: a7f6 b63e 6ba8 8a3e 2d11 8dbe 1ec4 593f
000000d0: c1ec 883e 49b2 aebd ecfa eb3d 6215 01bf
000000e0: 40e4 19bf 9ee6 c1bd 5ec5 733e cd9e 1a3f
000000f0: 0211 aebe 986c 7cbf 2c82 85be 5860 89bd
00000100: b2a7 73be 44e0 c03e c33d abbe 05d8 9f3f
00000110: 07cf a93e 31aa 913e cfb7 483e 8eb2 dabd
00000120: aa74 0bbf c588 0e3f 1dfa c3be 48b8 c6bd
00000130: 69f2 66bf 4fec 98be f1e8 d73d 67ce 47be
00000140: 394e f3be 9199 a33e ef61 f23e ab6f 183f
00000150: 9e3f 723f f6c6 b1be 08c3 63bf 46d2 d23e
00000160: 8145 b53e fa52 0e3f fefa bc3e 3f55 2cbf
00000170: c5e9 923e 9e85 e2bf 6b20 81bf 28c1 2c3f
00000180: 1426 57bf 4cbd 56bf a13c 8dbb 9c22 4b3f
00000190: 948d bdbe a11b febd 12c1 833f ccc8 6a3f
000001a0: 04f4 8b3e 319a 493e 4bcb 5cbf 06ff 6abd
000001b0: b51f cd3f 305c 783d 8853 cfbf 3a04 e9be
000001c0: 8103 583e 7bb2 163f 246a 3cbf 4f64 063f
000001d0: eff2 173e 1560 813d f675 483f da9e ef3d
000001e0: a34c d1bf 1c77 01bf f4f9 ca3e 969a 7a3e
000001f0: 05fc eebe b02e 253f 81bc 0abf 66c2 8abf
00000200: 5df6 39bf a9c2 09be fd1f 27bf 5917 ddbe
00000210: ddc6 cfbe cc93 c83e b19d ef3d bd22 16bf
00000220: 0929 fbbe 56a5 b23d 8672 57bf eec0 8f3e
00000230: dc3d 843f 59e1 eebd 8d42 6cbe f89a 953e
00000240: 60c0 13bd 191c 9bbd b5ce b43e 880b 6f3f
00000250: 7116 933e b145 813e dda3 f53e 9c11 0f3f
00000260: bcc9 84bf bbce b6be 2a3e 8f3c 2962 32bf
00000270: a5ac 163f 8662 28bf bc30 64be c450 10bf
00000280: 4917 763f b71e e03e fa1c 293d 9d9b 12bf
00000290: bea8 3bbf e09c d7be 315b c0bd 8dad 813e
000002a0: 4e04 1bbe 38bd e83e 6721 633f 1203 a53f
000002b0: 9df6 35bf 7c08 5f3e 5c24 33bd 8f67 4e3f
000002c0: b6ce d53e 9f00 a43e 753e 9bbe fdc1 673f
000002d0: 929e 813e 62bc 01be 390b 033e ffe2 02bf
000002e0: cbdf 37bf 32a1 1bbe 2a41 7b3e 93c8 fc3e
000002f0: ad7c c7be c0af 85bf 9868 53be aa8b cabc
00000300: 7688 4abe 2fba 9a3e 53d6 60be 1ed6 a93f
00000310: 1f93 a33e e8d7 843e 642b 4c3e e1af 06be
00000320: 78c4 f9be 70c1 153f 01f0 f3be c61d 40bc
00000330: 1748 6ebf 0d6a 51be 4183 6b3d c894 38be
00000340: 4854 0bbf 4913 b73e d90e f73e 2ab8 273f
00000350: d38f 753f b99d b4be 6f63 61bf 9764 d93e
00000360: 325e be3e cd8e 053f c4e1 d13e da35 36bf
00000370: 01d6 9d3e 288e d8bf 8f45 71bf a9d6 283f
00000380: 3887 7bbf 7500 59bf 7113 24bc 9098 5e3f
00000390: d3c2 d7be 1e6e 3bbe 7944 7a3f 4d43 5d3f
000003a0: ba05 8f3e cc6d 513e e916 72bf 0a18 e0bd
000003b0: 434d d33f 13aa c13d b3b9 cbbf ad0e f8be
000003c0: 6cdd fc3d ff06 1e3f baad 51bf 4900 103f
000003d0: a06e 1f3e 7e03 593d 8860 603f 6b10 1e3e
000003e0: 6d59 d0bf f857 dcbe ed3b ad3e a27a 883e
000003f0: 2cdf f4be 17e4 233f 8cc3 03bf 2979 8abf

pred.bias f4 [74]
-1.7616949 -1.608443 0.2079032 -1.6269971 -0.15505269 -0.20318042 -0.13879916 -0.067999564
0.06512027 -0.031810172 0.4146509 0.075636946 -0.24416022 -0.26193142 0.1578815 -0.24909833
-0.25344247 -0.018865494 0.4003016 0.6877797 0.036785275 -0.0743081 0.0066072745 -0.016606536
-0.0038589071 -0.022533802 0.038964838 0.32146326 0.09145775 -0.21620996 -1.1260072 -0.020255227
0.17013177 0.11807693 -0.10408325 -0.4012315 -0.04990132 -0.0077370885 0.25574133 -0.005386457
-0.10151934 -0.499776 -0.050143022 -0.48479846 -0.22893132 -0.012509412 -0.12910852 0.06499251
0.23660567 0.1539449 0.2580912 0.059987247 -0.09360417 -0.13652857 -0.22469193 0.17686327
-0.051810913 0.08541342 -0.5957204 -0.03626253 0.45386425 0.10898515 0.4192856 -0.5512676
0.148283 0.5511887 -0.1301685 -0.7951877 0.036977343 0.49505508 0.12542616 0.03257041
-0.11740007 -0.2966714
00000000: 387f e1bf 76e1 cdbf 94e4 543e 7141 d0bf
00000010: 22c6 1ebe 870e 50be 5e21 0ebe 5b43 8bbd
00000020: c75d 853d 624b 02bd 1f4d d43e 8be7 9a3d
00000030: 2305 7abe e01b 86be b0ab 213e a213 7fbe
00000040: 36c3 81be cf8b 9abc 55f4 cc3e 5512 303f
00000050: 28ac 163d d82e 98bd d681 d83b 6e0a 88bc
00000060: b8e5 7cbb cf98 b8bc 9899 1f3d d596 a43e
00000070: 334e bb3d 2566 5dbe 0121 90bf 4aee a5bc
00000080: 0637 2e3e 51d2 f13d 9929 d5bd 376e cdbe
00000090: 5465 4cbd 6787 fdbb 87f0 823e e080 b0bb
000000a0: 5fe9 cfbd a4e2 ffbe c562 4dbd 8137 f8be
000000b0: f96c 6abe 47f4 4cbc 0635 04be cb1a 853d
000000c0: c248 723e bba3 1d3e 8824 843e 30b5 753d
000000d0: 8bb3 bfbd 25ce 0bbe a415 66be a51b 353e
000000e0: ae37 54bd 3bed ae3d 2281 18bf 0588 14bd
000000f0: e560 e83e 9b33 df3d 9aac d63e e01f 0dbf
00000100: 80d7 173e b41a 0d3f e44a 05be 6c91 4bbf
00000110: 8e75 173d dc77 fd3e b76f 003e 8d68 053d
00000120: 736f f0bd 50e5 97be
